…
    train_gnn(tr_data, val_data, te_data, tr_inds, val_inds, te_inds, args, data_config)
  File "C:\Users\user\Multi-GNN\training.py", line 449, in train_gnn
    logging.info(summary(model, sample_x, sample_edge_index, sample_edge_attr)) # [Source 82]
Message: '+-----------------------+-----------------------------------------+----------------+----------+\n| Layer                 | Input Shape                             | Output Shape   | #Param   |\n|-----------------------+-----------------------------------------+----------------+----------|\n| RGCN                  | [193245, 1], [2, 1642488], [1642488, 4] | [1642488, 2]   | 90,543   |\n| ├─(node_emb)Linear    | [193245, 1]                             | [193245, 66]   | 132      |\n| ├─(edge_emb)Linear    | [1642488, 4]                            | [1642488, 66]  | 330      |\n| ├─(convs)ModuleList   | --                                      | --             | 78,540   |\n| │    └─(0)RGCNConv    | [193245, 66], [2, 1642488], [1642488]   | [193245, 66]   | 39,270   |\n| │    └─(1)RGCNConv    | [193245, 66], [2, 1642488], [1642488]   | [193245, 66]   | 39,270   |\n| ├─(bns)ModuleList     | --                                      | --             | 264      |\n| │    └─(0)BatchNorm1d | [193245, 66]                            | [193245, 66]   | 132      |\n| │    └─(1)BatchNorm1d | [193245, 66]                            | [193245, 66]   | 132      |\n| ├─(mlp)Sequential     | [1642488, 198]                          | [1642488, 2]   | 11,277   |\n| │    └─(0)Linear      | [1642488, 198]                          | [1642488, 50]  | 9,950    |\n| │    └─(1)ReLU        | [1642488, 50]                           | [1642488, 50]  | --       |\n| │    └─(2)Dropout     | [1642488, 50]                           | [1642488, 50]  | --       |\n| │    └─(3)Linear      | [1642488, 50]                           | [1642488, 25]  | 1,275    |\n| │    └─(4)ReLU        | [1642488, 25]                           | [1642488, 25]  | --       |\n| │    └─(5)Dropout     | [1642488, 25]                           | [1642488, 25]  | --       |\n| │    └─(6)Linear      | [1642488, 25]                           | [1642488, 2]   | 52       |\n+-----------------------+-----------------------------------------+----------------+----------+'
Arguments: ()
2025-04-08 15:03:45,244 [INFO ] +-----------------------+-----------------------------------------+----------------+----------+
| Layer                 | Input Shape                             | Output Shape   | #Param   |
|-----------------------+-----------------------------------------+----------------+----------|
| RGCN                  | [193245, 1], [2, 1642488], [1642488, 4] | [1642488, 2]   | 90,543   |
| ├─(node_emb)Linear    | [193245, 1]                             | [193245, 66]   | 132      |
| ├─(edge_emb)Linear    | [1642488, 4]                            | [1642488, 66]  | 330      |
| ├─(convs)ModuleList   | --                                      | --             | 78,540   |
| │    └─(0)RGCNConv    | [193245, 66], [2, 1642488], [1642488]   | [193245, 66]   | 39,270   |
| │    └─(1)RGCNConv    | [193245, 66], [2, 1642488], [1642488]   | [193245, 66]   | 39,270   |
| ├─(bns)ModuleList     | --                                      | --             | 264      |
| │    └─(0)BatchNorm1d | [193245, 66]                            | [193245, 66]   | 132      |
| │    └─(1)BatchNorm1d | [193245, 66]                            | [193245, 66]   | 132      |
| ├─(mlp)Sequential     | [1642488, 198]                          | [1642488, 2]   | 11,277   |
| │    └─(0)Linear      | [1642488, 198]                          | [1642488, 50]  | 9,950    |
| │    └─(1)ReLU        | [1642488, 50]                           | [1642488, 50]  | --       |
| │    └─(2)Dropout     | [1642488, 50]                           | [1642488, 50]  | --       |
| │    └─(3)Linear      | [1642488, 50]                           | [1642488, 25]  | 1,275    |
| │    └─(4)ReLU        | [1642488, 25]                           | [1642488, 25]  | --       |
| │    └─(5)Dropout     | [1642488, 25]                           | [1642488, 25]  | --       |
| │    └─(6)Linear      | [1642488, 25]                           | [1642488, 2]   | 52       |
+-----------------------+-----------------------------------------+----------------+----------+
2025-04-08 15:03:45,250 [INFO ] Using CrossEntropyLoss with weights: [1.0000182882773443, 9.23]
2025-04-08 15:03:45,250 [INFO ] Starting homogenous GNN training for 100 epochs...
2025-04-08 15:03:45,250 [INFO ] Config: {'epochs': 100, 'batch_size': 73728, 'model': 'rgcn', 'data': 'Small_HI', 'n
…
