…
    train_gnn(tr_data, val_data, te_data, tr_inds, val_inds, te_inds, args, data_config)
  File "C:\Users\user\Multi-GNN\training.py", line 449, in train_gnn
    logging.info(summary(model, sample_x, sample_edge_index, sample_edge_attr)) # [Source 82]
Message: '+---------------------------------+-------------------------------------------+----------------+----------+\n| Layer                           | Input Shape                               | Output Shape   | #Param   |\n|---------------------------------+-------------------------------------------+----------------+----------|\n| GATe                            | [193245, 1], [2, 1642488], [1642488, 4]   | [1642488, 2]   | 28,577   |\n| ├─(node_emb)Linear              | [193245, 1]                               | [193245, 64]   | 128      |\n| ├─(edge_emb)Linear              | [1642488, 4]                              | [1642488, 64]  | 320      |\n| ├─(convs)ModuleList             | --                                        | --             | 16,896   |\n| │    └─(0)GATConv               | [193245, 64], [2, 1642488], [1642488, 64] | [193245, 64]   | 8,448    |\n| │    └─(1)GATConv               | [193245, 64], [2, 1642488], [1642488, 64] | [193245, 64]   | 8,448    |\n| ├─(emlps)ModuleList             | --                                        | --             | --       |\n| ├─(batch_norms)ModuleList       | --                                        | --             | 256      |\n| │    └─(0)BatchNorm             | [193245, 64]                              | [193245, 64]   | 128      |\n| │    │    └─(module)BatchNorm1d | [193245, 64]                              | [193245, 64]   | 128      |\n| │    └─(1)BatchNorm             | [193245, 64]                              | [193245, 64]   | 128      |\n| │    │    └─(module)BatchNorm1d | [193245, 64]                              | [193245, 64]   | 128      |\n| ├─(mlp)Sequential               | [1642488, 192]                            | [1642488, 2]   | 10,977   |\n| │    └─(0)Linear                | [1642488, 192]                            | [1642488, 50]  | 9,650    |\n| │    └─(1)ReLU                  | [1642488, 50]                             | [1642488, 50]  | --       |\n| │    └─(2)Dropout               | [1642488, 50]                             | [1642488, 50]  | --       |\n| │    └─(3)Linear                | [1642488, 50]                             | [1642488, 25]  | 1,275    |\n| │    └─(4)ReLU                  | [1642488, 25]                             | [1642488, 25]  | --       |\n| │    └─(5)Dropout               | [1642488, 25]                             | [1642488, 25]  | --       |\n| │    └─(6)Linear                | [1642488, 25]                             | [1642488, 2]   | 52       |\n+---------------------------------+-------------------------------------------+----------------+----------+'
Arguments: ()
2025-04-08 11:07:33,988 [INFO ] +---------------------------------+-------------------------------------------+----------------+----------+
| Layer                           | Input Shape                               | Output Shape   | #Param   |
|---------------------------------+-------------------------------------------+----------------+----------|
| GATe                            | [193245, 1], [2, 1642488], [1642488, 4]   | [1642488, 2]   | 28,577   |
| ├─(node_emb)Linear              | [193245, 1]                               | [193245, 64]   | 128      |
| ├─(edge_emb)Linear              | [1642488, 4]                              | [1642488, 64]  | 320      |
| ├─(convs)ModuleList             | --                                        | --             | 16,896   |
| │    └─(0)GATConv               | [193245, 64], [2, 1642488], [1642488, 64] | [193245, 64]   | 8,448    |
| │    └─(1)GATConv               | [193245, 64], [2, 1642488], [1642488, 64] | [193245, 64]   | 8,448    |
| ├─(emlps)ModuleList             | --                                        | --             | --       |
| ├─(batch_norms)ModuleList       | --                                        | --             | 256      |
| │    └─(0)BatchNorm             | [193245, 64]                              | [193245, 64]   | 128      |
| │    │    └─(module)BatchNorm1d | [193245, 64]                              | [193245, 64]   | 128      |
| │    └─(1)BatchNorm             | [193245, 64]                              | [193245, 64]   | 128      |
| │    │    └─(module)BatchNorm1d | [193245, 64]                              | [193245, 64]   | 128      |
| ├─(mlp)Sequential               | [1642488, 192]                            | [1642488, 2]   | 10,977   |
| │    └─(0)Linear                | [1642488, 192]                            | [1642488, 50]  | 9,650    |
| │    └─(1)ReLU                  | [1642488, 50]                             | [1642488, 50]  | --       |
| │    └─(2)Dropout               | [1642488, 50]                             | [1642488, 50]  | --       |
| │    └─(3)Linear                | [1642488, 50]                             | [1642488, 25]  | 1,275    |
| │    └─(4)ReLU                  | [1642488, 25]                             | [1642488, 25]  | --       |
| │    └─(5)Dropout               | [1642488, 25]                             | [1642488, 25]  | --       |
| │    └─(6)Linear                | [1642488, 25]                             | [1642488, 2]   | 52       |
+---------------------------------+-------------------------------------------+----------------+----------+
2025-04-08 11:07:34,051 [INFO ] Using CrossEntropyLoss with weights: [1, 6]
2025-04-08 11:07:34,051 [INFO ] Starting homogenous GNN training for 100 epochs...
2025-04-08 11:07:34,052 [INFO ] Config: {'epochs': 100, 'batch_size': 73728, 'model': 'gat', 'data': 'Small_HI', 'num_neighbors': [100, 100], 'lr': 0.006, 'n_hidden': 64, 'n_gnn_layers': 2, 'loss': 'ce', 'w_ce1': 1, 'w_ce2': 6, 'dropout': 0.009, 'final_dropout': 0.1, 'n_heads': 4, 'emlps': False, 'reverse_mp': False, 'ports': False, 'tds': False, 'ego': False, 'seed': 1}
…
