…
    train_gnn(tr_data, val_data, te_data, tr_inds, val_inds, te_inds, args, data_config)
  File "C:\Users\user\Multi-GNN\training.py", line 449, in train_gnn
    logging.info(summary(model, sample_x, sample_edge_index, sample_edge_attr)) # [Source 82]
Message: '+---------------------------------+-------------------------------------------+----------------+----------+\n| Layer                           | Input Shape                               | Output Shape   | #Param   |\n|---------------------------------+-------------------------------------------+----------------+----------|\n| PNA                             | [193245, 1], [2, 1642488], [1642488, 4]   | [1642488, 2]   | 28,917   |\n| ├─(node_emb)Linear              | [193245, 1]                               | [193245, 20]   | 40       |\n| ├─(edge_emb)Linear              | [1642488, 4]                              | [1642488, 20]  | 100      |\n| ├─(convs)ModuleList             | --                                        | --             | 24,320   |\n| │    └─(0)PNAConv               | [193245, 20], [2, 1642488], [1642488, 20] | [193245, 20]   | 12,160   |\n| │    └─(1)PNAConv               | [193245, 20], [2, 1642488], [1642488, 20] | [193245, 20]   | 12,160   |\n| ├─(emlps)ModuleList             | --                                        | --             | --       |\n| ├─(batch_norms)ModuleList       | --                                        | --             | 80       |\n| │    └─(0)BatchNorm             | [193245, 20]                              | [193245, 20]   | 40       |\n| │    │    └─(module)BatchNorm1d | [193245, 20]                              | [193245, 20]   | 40       |\n| │    └─(1)BatchNorm             | [193245, 20]                              | [193245, 20]   | 40       |\n| │    │    └─(module)BatchNorm1d | [193245, 20]                              | [193245, 20]   | 40       |\n| ├─(mlp)Sequential               | [1642488, 60]                             | [1642488, 2]   | 4,377    |\n| │    └─(0)Linear                | [1642488, 60]                             | [1642488, 50]  | 3,050    |\n| │    └─(1)ReLU                  | [1642488, 50]                             | [1642488, 50]  | --       |\n| │    └─(2)Dropout               | [1642488, 50]                             | [1642488, 50]  | --       |\n| │    └─(3)Linear                | [1642488, 50]                             | [1642488, 25]  | 1,275    |\n| │    └─(4)ReLU                  | [1642488, 25]                             | [1642488, 25]  | --       |\n| │    └─(5)Dropout               | [1642488, 25]                             | [1642488, 25]  | --       |\n| │    └─(6)Linear                | [1642488, 25]                             | [1642488, 2]   | 52       |\n+---------------------------------+-------------------------------------------+----------------+----------+'
Arguments: ()
2025-04-07 22:01:10,329 [INFO ] +---------------------------------+-------------------------------------------+----------------+----------+
| Layer                           | Input Shape                               | Output Shape   | #Param   |
|---------------------------------+-------------------------------------------+----------------+----------|
| PNA                             | [193245, 1], [2, 1642488], [1642488, 4]   | [1642488, 2]   | 28,917   |
| ├─(node_emb)Linear              | [193245, 1]                               | [193245, 20]   | 40       |
| ├─(edge_emb)Linear              | [1642488, 4]                              | [1642488, 20]  | 100      |
| ├─(convs)ModuleList             | --                                        | --             | 24,320   |
| │    └─(0)PNAConv               | [193245, 20], [2, 1642488], [1642488, 20] | [193245, 20]   | 12,160   |
| │    └─(1)PNAConv               | [193245, 20], [2, 1642488], [1642488, 20] | [193245, 20]   | 12,160   |
| ├─(emlps)ModuleList             | --                                        | --             | --       |
| ├─(batch_norms)ModuleList       | --                                        | --             | 80       |
| │    └─(0)BatchNorm             | [193245, 20]                              | [193245, 20]   | 40       |
| │    │    └─(module)BatchNorm1d | [193245, 20]                              | [193245, 20]   | 40       |
| │    └─(1)BatchNorm             | [193245, 20]                              | [193245, 20]   | 40       |
| │    │    └─(module)BatchNorm1d | [193245, 20]                              | [193245, 20]   | 40       |
| ├─(mlp)Sequential               | [1642488, 60]                             | [1642488, 2]   | 4,377    |
| │    └─(0)Linear                | [1642488, 60]                             | [1642488, 50]  | 3,050    |
| │    └─(1)ReLU                  | [1642488, 50]                             | [1642488, 50]  | --       |
| │    └─(2)Dropout               | [1642488, 50]                             | [1642488, 50]  | --       |
| │    └─(3)Linear                | [1642488, 50]                             | [1642488, 25]  | 1,275    |
| │    └─(4)ReLU                  | [1642488, 25]                             | [1642488, 25]  | --       |
| │    └─(5)Dropout               | [1642488, 25]                             | [1642488, 25]  | --       |
| │    └─(6)Linear                | [1642488, 25]                             | [1642488, 2]   | 52       |
+---------------------------------+-------------------------------------------+----------------+----------+
2025-04-07 22:01:10,332 [INFO ] Using CrossEntropyLoss with weights: [1.0003967674742307, 7.077633468006714]
2025-04-07 22:01:10,332 [INFO ] Starting homogenous GNN training for 100 epochs...
2025-04-07 22:01:10,333 [INFO ] Config: {'epochs': 100, 'batch_size': 73728, 'model': 'pna'
…
